Modern-Computer-Vision(book)/chapter02/mymodel.pth (torch, 1811 bytes, 3 tensors)

0.weight f4 [8, 2]
0.51876426 0.50796205 0.83635914 0.49571496 -0.10688179 -0.1827414 0.34902966 0.14886852
0.037508167 0.39172086 -0.09309421 -0.30823523 -0.15284209 -0.6158789 -0.093417645 -0.13330652
00000000: bccd 043f cd09 023f a21b 563f 5ace fd3e
00000010: d7e4 dabd 9020 3bbe 04b4 b23e fd70 183e
00000020: 2aa2 193d a38f c83e 2da8 bebd 02d1 9dbe
00000030: a382 1cbe 3daa 1dbf c051 bfbd 8181 08be

0.bias f4 [8]
0.6816409 -0.4152287 -0.14852026 -0.7057452 -0.5397484 -0.1279666 -0.55986077 -0.21394153
00000000: 0580 2e3f db98 d4be b215 18be b8ab 34bf
00000010: f32c 0abf ad09 03be 0953 0fbf 7d13 5bbe

2.weight f4 [1, 8]
0.8399323 0.78200585 0.032934222 0.042577736 0.15647177 -0.249092 0.07516983 0.18365523
00000000: ce05 573f 8931 483f 09e6 063d fe65 2e3d
00000010: 233a 203e f911 7fbe a4f2 993d 1e10 3c3e
